…
By removing the low probability predic ons you should have:

Then get the best probability followed by the IOU ﬁltering:

YOLO are not good at detec ng smaller object.
YOLO9000 Be er, faster, stronger
Summary:
1
2
3
4
5
6
7
8
9
10
11
12
13
14
15
16
17
18
19
20
21
22
23
24
25
26
27
28
29
30
31
32
33
34

_________________________________________________________________________
Layer (type)
Output Shape
Param #
Connec
=========================================================================
input_1 (InputLayer)
(None, 608, 608, 3)
0
_________________________________________________________________________
conv2d_1 (Conv2D)
(None, 608, 608, 32) 864
input_
_________________________________________________________________________
batch_normalization_1 (BatchNorm (None, 608, 608, 32) 128
conv2d
_________________________________________________________________________
leaky_re_lu_1 (LeakyReLU)
(None, 608, 608, 32) 0
batch_normal
_________________________________________________________________________
max_pooling2d_1 (MaxPooling2D)
(None, 304, 304, 32) 0
leaky_
_________________________________________________________________________
conv2d_2 (Conv2D)
(None, 304, 304, 64) 18432
max_po
_________________________________________________________________________
batch_normalization_2 (BatchNorm (None, 304, 304, 64) 256
conv2d
_________________________________________________________________________
leaky_re_lu_2 (LeakyReLU)
(None, 304, 304, 64) 0
batch_normal
_________________________________________________________________________
max_pooling2d_2 (MaxPooling2D)
(None, 152, 152, 64) 0
leaky_
_________________________________________________________________________
conv2d_3 (Conv2D)
(None, 152, 152, 128) 73728
max_po
_________________________________________________________________________
batch_normalization_3 (BatchNorm (None, 152, 152, 128) 512
conv2d
_________________________________________________________________________
leaky_re_lu_3 (LeakyReLU)
(None, 152, 152, 128) 0
batch_normal
_________________________________________________________________________
conv2d_4 (Conv2D)
(None, 152, 152, 64) 8192
leaky_
_________________________________________________________________________
batch_normalization_4 (BatchNorm (None, 152, 152, 64) 256
conv2d
_________________________________________________________________________
leaky_re_lu_4 (LeakyReLU)
(None, 152, 152, 64) 0
batch_normal
_________________________________________________________________________
conv2d_5 (Conv2D)
(None, 152, 152, 128) 73728
leaky_

35
36
37
38
39
40
41
42
43
44
45
46
47
48
49
50
51
52
53
54
55
56
57
58
59
60
61
62
63
64
65
66
67
68
69
70
71
72
73
74
75
76
77
78
79
80
81
82
83
84
85
86
87
88
89
90
91
92

_________________________________________________________________________
batch_normalization_5 (BatchNorm (None, 152, 152, 128) 512
conv2d
_________________________________________________________________________
leaky_re_lu_5 (LeakyReLU)
(None, 152, 152, 128) 0
batch_normal
_________________________________________________________________________
max_pooling2d_3 (MaxPooling2D)
(None, 76, 76, 128)
0
leaky_
_________________________________________________________________________
conv2d_6 (Conv2D)
(None, 76, 76, 256)
294912
max_po
_________________________________________________________________________
batch_normalization_6 (BatchNorm (None, 76, 76, 256)
…
2048
conv2d
_________________________________________________________________________
leaky_re_lu_13 (LeakyReLU)
(None, 38, 38, 512)
0
batch_normali
_________________________________________________________________________
max_pooling2d_5 (MaxPooling2D)
(None, 19, 19, 512)
0
leaky_

93
94
95
96
97
98
99
100
101
102
103
104
105
106
107
108
109
110
111
112
113
114
115
116
117
118
119
120
121
122
123
124
125
126
127
128
129
130
131
132
133
134
135
136
137
138
139
140
141
142
143
144
145
146
147
148
149
150

_________________________________________________________________________
conv2d_14 (Conv2D)
(None, 19, 19, 1024) 4718592
max_po
_________________________________________________________________________
batch_normalization_14 (BatchNor (None, 19, 19, 1024) 4096
conv2d
_________________________________________________________________________
leaky_re_lu_14 (LeakyReLU)
(None, 19, 19, 1024) 0
batch_normali
_________________________________________________________________________
conv2d_15 (Conv2D)
(None, 19, 19, 512)
524288
leaky_
_________________________________________________________________________
batch_normalization_15 (BatchNor (None, 19, 19, 512)
2048
conv2d
_________________________________________________________________________
leaky_re_lu_15 (LeakyReLU)
(None, 19, 19, 512)
0
batch_normali
_________________________________________________________________________
conv2d_16 (Conv2D)
(None, 19, 19, 1024) 4718592
leaky_
_________________________________________________________________________
batch_normalization_16 (BatchNor (None, 19, 19, 1024) 4096
conv2d
_________________________________________________________________________
leaky_re_lu_16 (LeakyReLU)
(None, 19, 19, 1024) 0
batch_normali
_________________________________________________________________________
conv2d_17 (Conv2D)
(None, 19, 19, 512)
524288
leaky_
_________________________________________________________________________
batch_normalization_17 (BatchNor (None, 19, 19, 512)
2048
conv2d
_________________________________________________________________________
leaky_re_lu_17 (LeakyReLU)
(None, 19, 19, 512)
0
batch_normali
_________________________________________________________________________
conv2d_18 (Conv2D)
(None, 19, 19, 1024) 4718592
leaky_
_________________________________________________________________________
batch_normalization_18 (BatchNor (None, 19, 19, 1024) 4096
conv2d
_________________________________________________________________________
leaky_re_lu_18 (LeakyReLU)
(None, 19, 19, 1024) 0
batch_normali
_________________________________________________________________________
conv2d_19 (Conv2D)
(None, 19, 19, 1024) 9437184
leaky_
_________________________________________________________________________
batch_normalization_19 (BatchNor (None, 19, 19, 1024) 4096
conv2d
_________________________________________________________________________
conv2d_21 (Conv2D)
(None, 38, 38, 64)
32768
leaky_
_________________________________________________________________________
leaky_re_lu_19 (LeakyReLU)
(None, 19, 19, 1024) 0
batch_normali
_________________________________________________________________________
batch_normalization_21 (BatchNor (None, 38, 38, 64)
256
conv2d
_________________________________________________________________________
conv2d_20 (Conv2D)
(None, 19, 19, 1024) 9437184
leaky_
_________________________________________________________________________
leaky_re_lu_21 (LeakyReLU)
(None, 38, 38, 64)
0
batch_normali
_________________________________________________________________________
batch_normalization_20 (BatchNor (None, 19, 19, 1024) 4096
conv2d
_________________________________________________________________________
space_to_depth_x2 (Lambda)
(None, 19, 19, 256)
0
leaky_
_________________________________________________________________________
leaky_re_lu_20 (LeakyReLU)
(None, 19, 19, 1024) 0
batch_normali
_________________________________________________________________________
concatenate_1 (Concatenate)
(None, 19, 19, 1280) 0
space_to
leaky_r
_________________________________________________________________________
conv2d_22 (Conv2D)
(None, 19, 19, 1024) 11796480
concat
_________________________________________________________________________
batch_normalization_22 (BatchNor (None, 19, 19, 1024) 4096
conv2d
_________________________________________________________________________

151
152
153
154
155
156
157
158

leaky_re_lu_22 (LeakyReLU)
(None, 19, 19, 1024) 0
batch_normali
_________________________________________________________________________
conv2d_23 (Conv2D)
(None, 19, 19, 425)
435625
leaky_
=========================================================================
Total params: 50,983,561
Trainable params: 50,962,889
Non-trainable params: 20,672
_________________________________________________________________________

You can ﬁnd implementa ons for YOLO here:
…
